…
     "shell.execute_reply": "2024-06-22T20:31:53.472240Z"
    },
    "papermill": {
     "duration": 16.501513,
     "end_time": "2024-06-22T20:31:53.477096",
     "exception": false,
     "start_time": "2024-06-22T20:31:36.975583",
     "status": "completed"
    },
    "tags": []
   },
   "outputs": [
    {
     "name": "stdout",
     "output_type": "stream",
     "text": [
      "----------------------------------------------------------------\n",
      "        Layer (type)               Output Shape         Param #\n",
      "================================================================\n",
      "            Conv3d-1     [-1, 64, 13, 300, 300]          21,952\n",
      "       BatchNorm3d-2     [-1, 64, 13, 300, 300]             128\n",
      "              ReLU-3     [-1, 64, 13, 300, 300]               0\n",
      "         MaxPool3d-4      [-1, 64, 7, 150, 150]               0\n",
      "            Conv3d-5      [-1, 64, 7, 150, 150]           4,096\n",
      "       BatchNorm3d-6      [-1, 64, 7, 150, 150]             128\n",
      "            Conv3d-7      [-1, 64, 7, 150, 150]         110,592\n",
      "       BatchNorm3d-8      [-1, 64, 7, 150, 150]             128\n",
      "            Conv3d-9     [-1, 256, 7, 150, 150]          16,384\n",
      "      BatchNorm3d-10     [-1, 256, 7, 150, 150]             512\n",
      "             ReLU-11     [-1, 256, 7, 150, 150]               0\n",
      "           Conv3d-12     [-1, 256, 7, 150, 150]          16,384\n",
      "      BatchNorm3d-13     [-1, 256, 7, 150, 150]             512\n",
      "           Conv3d-14      [-1, 64, 7, 150, 150]          16,384\n",
      "      BatchNorm3d-15      [-1, 64, 7, 150, 150]             128\n",
      "           Conv3d-16      [-1, 64, 7, 150, 150]         110,592\n",
      "      BatchNorm3d-17      [-1, 64, 7, 150, 150]             128\n",
      "           Conv3d-18     [-1, 256, 7, 150, 150]          16,384\n",
      "      BatchNorm3d-19     [-1, 256, 7, 150, 150]             512\n",
      "             ReLU-20     [-1, 256, 7, 150, 150]               0\n",
      "           Conv3d-21      [-1, 64, 7, 150, 150]          16,384\n",
      "      BatchNorm3d-22      [-1, 64, 7, 150, 150]             128\n",
      "           Conv3d-23      [-1, 64, 7, 150, 150]         110,592\n",
      "      BatchNorm3d-24      [-1, 64, 7, 150, 150]             128\n",
      "           Conv3d-25     [-1, 256, 7, 150, 150]          16,384\n",
      "      BatchNorm3d-26     [-1, 256, 7, 150, 150]             512\n",
      "           Conv3d-27     [-1, 128, 7, 150, 150]          32,768\n",
      "      BatchNorm3d-28     [-1, 128, 7, 150, 150]             256\n",
      "           Conv3d-29       [-1, 128, 4, 75, 75]         442,368\n",
      "      BatchNorm3d-30       [-1, 128, 4, 75, 75]             256\n",
      "           Conv3d-31       [-1, 512, 4, 75, 75]          65,536\n",
      "      BatchNorm3d-32       [-1, 512, 4, 75, 75]           1,024\n",
      "             ReLU-33       [-1, 512, 4, 75, 75]               0\n",
      "           Conv3d-34       [-1, 512, 4, 75, 75]         131,072\n",
      "      BatchNorm3d-35       [-1, 512, 4, 75, 75]           1,024\n",
      "           Conv3d-36       [-1, 128, 4, 75, 75]          65,536\n",
      "      BatchNorm3d-37       [-1, 128, 4, 75, 75]             256\n",
      "           Conv3d-38       [-1, 128, 4, 75, 75]         442,368\n",
      "      BatchNorm3d-39       [-1, 128, 4, 75, 75]             256\n",
      "           Conv3d-40       [-1, 512, 4, 75, 75]          65,536\n",
      "      BatchNorm3d-41       [-1, 512, 4, 75, 75]           1,024\n",
      "             ReLU-42       [-1, 512, 4, 75, 75]               0\n",
      "           Conv3d-43       [-1, 128, 4, 75, 75]          65,536\n",
      "      BatchNorm3d-44       [-1, 128, 4, 75, 75]             256\n",
      "           Conv3d-45       [-1, 128, 4, 75, 75]         442,368\n",
      "      BatchNorm3d-46       [-1, 128, 4, 75, 75]             256\n",
      "           Conv3d-47       [-1, 512, 4, 75, 75]          65,536\n",
      "      BatchNorm3d-48       [-1, 512, 4, 75, 75]           1,024\n",
      "             ReLU-49       [-1, 512, 4, 75, 75]               0\n",
      "           Conv3d-50       [-1, 128, 4, 75, 75]          65,536\n",
      "      BatchNorm3d-51       [-1, 128, 4, 75, 75]             256\n",
      "           Conv3d-52       [-1, 128, 4, 75, 75]         442,368\n",
      "      BatchNorm3d-53       [-1, 128, 4, 75, 75]             256\n",
      "           Conv3d-54       [-1, 512, 4, 75, 75]          65,536\n",
      "      BatchNorm3d-55       [-1, 512, 4, 75, 75]           1,024\n",
      "           Conv3d-56       [-1, 256, 4, 75, 75]         131,072\n",
      "      BatchNorm3d-57       [-1, 256, 4, 75, 75]             512\n",
      "           Conv3d-58       [-1, 256, 2, 38, 38]       1,769,472\n",
      "      BatchNorm3d-59       [-1, 256, 2, 38, 38]             512\n",
      "           Conv3d-60      [-1, 1024, 2, 38, 38]         262,144\n",
      "      BatchNorm3d-61      [-1, 1024, 2, 38, 38]           2,048\n",
      "             ReLU-62      [-1, 1024, 2, 38, 38]               0\n",
      "           Conv3d-63      [-1, 1024, 2, 38, 38]         524,288\n",
      "      BatchNorm3d-64      [-1, 1024, 2, 38, 38]           2,048\n",
      "           Conv3d-65       [-1, 256, 2, 38, 38]         262,144\n",
      "      BatchNorm3d-66       [-1, 256, 2, 38, 38]             512\n",
      "           Conv3d-67       [-1, 256, 2, 38, 38]       1,769,472\n",
      "      BatchNorm3d-68       [-1, 256, 2, 38, 38]             512\n",
      "           Conv3d-69      [-1, 1024, 2, 38, 38]         262,144\n",
      "      BatchNorm3d-70      [-1, 1024, 2, 38, 38]           2,048\n",
      "             ReLU-71      [-1, 1024, 2, 38, 38]               0\n",
      "           Conv3d-72       [-1, 256, 2, 38, 38]         262,144\n",
      "      BatchNorm3d-73       [-1, 256, 2, 38, 38]             512\n",
      "           Conv3d-74       [-1, 256, 2, 38, 38]       1,769,472\n",
      "      BatchNorm3d-75       [-1, 256, 2, 38, 38]             512\n",
      "           Conv3d-76      [-1, 1024, 2, 38, 38]         262,144\n",
      "      BatchNorm3d-77      [-1, 1024, 2, 38, 38]           2,048\n",
      "             ReLU-78      [-1, 1024, 2, 38, 38]               0\n",
      "           Conv3d-79       [-1, 256, 2, 38, 38]         262,144\n",
      "      BatchNorm3d-80       [-1, 256, 2, 38, 38]             512\n",
      "           Conv3d-81       [-1, 256, 2, 38, 38]       1,769,472\n",
      "      BatchNorm3d-82       [-1, 256, 2, 38, 38]             512\n",
      "           Conv3d-83      [-1, 1024, 2, 38, 38]         262,144\n",
      "      BatchNorm3d-84      [-1, 1024, 2, 38, 38]           2,048\n",
      "             ReLU-85      [-1, 1024, 2, 38, 38]               0\n",
      "           Conv3d-86       [-1, 256, 2, 38, 38]         262,144\n",
      "      BatchNorm3d-87       [-1, 256, 2, 38, 38]             512\n",
      "           Conv3d-88       [-1, 256, 2, 38, 38]       1,769,472\n",
      "      BatchNorm3d-89       [-1, 256, 2, 38, 38]             512\n",
      "           Conv3d-90      [-1, 1024, 2, 38, 38]         262,144\n",
      "      BatchNorm3d-91      [-1, 1024, 2, 38, 38]           2,048\n",
      "             ReLU-92      [-1, 1024, 2, 38, 38]               0\n",
      "           Conv3d-93       [-1, 256, 2, 38, 38]         262,144\n",
      "      BatchNorm3d-94       [-1, 256, 2, 38, 38]             512\n",
      "           Conv3d-95       [-1, 256, 2, 38, 38]       1,769,472\n",
      "      BatchNorm3d-96       [-1, 256, 2, 38, 38]             512\n",
      "           Conv3d-97      [-1, 1024, 2, 38, 38]         262,144\n",
      "      BatchNorm3d-98      [-1, 1024, 2, 38, 38]           2,048\n",
      "           Conv3d-99       [-1, 512, 2, 38, 38]         524,288\n",
      "     BatchNorm3d-100       [-1, 512, 2, 38, 38]           1,024\n",
      "          Conv3d-101       [-1, 512, 1, 19, 19]       7,077,888\n",
      "     BatchNorm3d-102       [-1, 512, 1, 19, 19]           1,024\n",
      "          Conv3d-103      [-1, 2048, 1, 19, 19]       1,048,576\n",
      "     BatchNorm3d-104      [-1, 2048, 1, 19, 19]           4,096\n",
      "            ReLU-105      [-1, 2048, 1, 19, 19]               0\n",
      "          Conv3d-106      [-1, 2048, 1, 19, 19]       2,097,152\n",
      "     BatchNorm3d-107      [-1, 2048, 1, 19, 19]           4,096\n",
      "          Conv3d-108       [-1, 512, 1, 19, 19]       1,048,576\n",
      "     BatchNorm3d-109       [-1, 512, 1, 19, 19]           1,024\n",
      "          Conv3d-110       [-1, 512, 1, 19, 19]       7,077,888\n",
      "     BatchNorm3d-111       [-1, 512, 1, 19, 19]           1,024\n",
      "          Conv3d-112      [-1, 2048, 1, 19, 19]       1,048,576\n",
      "     BatchNorm3d-113      [-1, 2048, 1, 19, 19]           4,096\n",
      "            ReLU-114      [-1, 2048, 1, 19, 19]               0\n",
      "          Conv3d-115       [-1, 512, 1, 19, 19]       1,048,576\n",
      "     BatchNorm3d-116       [-1, 512, 1, 19, 19]           1,024\n",
      "          Conv3d-117       [-1, 512, 1, 19, 19]       7,077,888\n",
      "     BatchNorm3d-118       [-1, 512, 1, 19, 19]           1,024\n",
      "          Conv3d-119      [-1, 2048, 1, 19, 19]       1,048,576\n",
      "     BatchNorm3d-120      [-1, 2048, 1, 19, 19]           4,096\n",
      "AdaptiveAvgPool3d-121        [-1, 2048, 1, 1, 1]               0\n",
      "          Linear-122                   [-1, 40]          81,960\n",
      "================================================================\n",
      "Total params: 46,237,032\n",
      "Trainable params: 46,237,032\n",
      "Non-trainable params: 0\n",
      "----------------------------------------------------------------\n",
      "Input size (MB): 34.33\n",
      "Forward/backward pass size (MB): 8281.37\n",
      "Params size (MB): 176.38\n",
      "Estimated Total Size (MB): 8492.08\n",
…
